…
"},"source":["#input and output layers have the same dimensions. Bottleneck between all the layers between\n","autoencoder.summary()"],"execution_count":51,"outputs":[{"output_type":"stream","text":["Model: \"model\"\n","_________________________________________________________________\n","Layer (type)                 Output Shape              Param #   \n","=================================================================\n","input_2 (InputLayer)         [(None, 17)]              0         \n","_________________________________________________________________\n","dense_4 (Dense)              (None, 7)                 126       \n","_________________________________________________________________\n","dense_5 (Dense)              (None, 500)               4000      \n","_________________________________________________________________\n","dense_6 (Dense)              (None, 2000)              1002000   \n","_________________________________________________________________\n","dense_7 (Dense)              (None, 10)                20010     \n","_________________________________________________________________\n","dense_8 (Dense)              (None, 2000)              22000     \n","_________________________________________________________________\n","dense_9 (Dense)              (None, 500)               1000500   \n","_________________________________________________________________\n","dense_10 (Dense)             (None, 17)                8517      \n","=================================================================\n","Total params: 2,057,153\n","Trainable params: 2,057,153\n","Non-trainable params: 0\n","_________________________________________________________________\n"],"name":"stdout"}]},{"cell_type":"code","metadata":{"id":"r_iqk31a2G-t","colab":{"base_uri":"https://localhost:8080/"},"executionInfo":{"status":"ok","timestamp":
…
